models/cifar_trained_gnn/best_snapshot_None_0_val_acc_0.826_loss_val_0.1036_epoch_57.pt (torch_old, 481088 bytes, 51 tensors)

EmbedUpdates.update.inp_f.weight f4 [64, 3]
0	0x0000c7d0	7.1679e-41
1	0x8000fa97	-8.9895e-41
2	0x0000b216	6.3885e-41
3	0x00006912	3.7692e-41
4	0x0000f41b	8.7569e-41
5	0x0000fa72	8.9843e-41
6	0x0000a678	5.9718e-41
7	0x0000f217	8.6845e-41
8	0x0000bc42	6.7534e-41
9	0x8000fb15	-9.0071e-41
10	0x0000c788	7.1578e-41
11	0x000009ce	3.517e-42
12	0x00009094	5.1865e-41
13	0x0000b709	6.566e-41
14	0x0000ec83	8.4844e-41
15	0x0000b2f9	6.4203e-41
16	0x80004791	-2.5673e-41
17	0x0000a984	6.0811e-41
18	0x8000e227	-8.1128e-41
19	0x800018cd	-8.897e-42
20	0x8000616f	-3.4953e-41
21	0x800062e2	-3.5472e-41
22	0x0000497d	2.6363e-41
23	0x0000f594	8.8097e-41
24	0x8000f5cf	-8.818e-41
25	0x00008783	4.8612e-41
26	0x80009907	-5.4896e-41
27	0x8000fb70	-9.0199e-41
28	0x8000df60	-8.0132e-41
29	0x800028be	-1.4616e-41
30	0x8000ded5	-7.9937e-41
31	0x8000440a	-2.4408e-41
32	0x8000f8ee	-8.9299e-41
33	0x800066f2	-3.693e-41
34	0x00001c6a	1.0193e-41
35	0x0000ecca	8.4944e-41
36	0x80007d3d	-4.4927e-41
37	0x80002dfb	-1.6495e-41
38	0x0000c7fb	7.174e-41
39	0x0000d59d	7.663e-41
40	0x0000f9a9	8.9561e-41
41	0x00009772	5.4328e-41
42	0x8000fb5d	-9.0172e-41
43	0x80007851	-4.3161e-41
44	0x8000cb1c	-7.2862e-41
45	0x00008883	4.8971e-41
46	0x00005db5	3.3616e-41
47	0x0000efc7	8.6016e-41
48	0x00007ac9	4.4047e-41
49	0x00007b29	4.4182e-41
50	0x00007bd2	4.4418e-41
51	0x0000f10a	8.6469e-41
52	0x0000e137	8.0792e-41
53	0x0000c1d2	6.953e-41
54	0x0000d588	7.66e-41
55	0x80007dc1	-4.5112e-41
56	0x8000e00f	-8.0377e-41
57	0x8000f1ca	-8.6738e-41
58	0x00008947	4.9246e-41
59	0x000030c8	1.75e-41
60	0x80009e72	-5.684e-41
61	0x0000f0ef	8.643e-41
62	0x8000fc1c	-9.044e-41
63	0x8000be03	-6.8163e-41
64	0x800072d5	-4.1194e-41
65	0x8000a7e9	-6.0235e-41
66	0x0000e2bc	8.1337e-41
67	0x00006c0d	3.8761e-41
68	0x8000210e	-1.1858e-41
69	0x000048d2	2.6123e-41
70	0x80005b4e	-3.2754e-41
71	0x8000068a	-2.346e-42
72	0x00003f1e	2.2642e-41
73	0x8000e38e	-8.1631e-41
74	0x0000cb83	7.3006e-41
75	0x800074ce	-4.1902e-41
76	0x8000cc05	-7.3188e-41
77	0x8000b7a6	-6.588e-41
78	0x80006128	-3.4853e-41
79	0x8000f562	-8.8027e-41
80	0x8000be28	-6.8215e-41
81	0x00007e01	4.5202e-41
82	0x80009784	-5.4354e-41
83	0x0000d98f	7.8045e-41
84	0x000032e8	1.8262e-41
85	0x800099b2	-5.5135e-41
86	0x0000c6db	7.1336e-41
87	0x80000b34	-4.019e-42
88	0x8000e9c5	-8.3861e-41
89	0x8000fcf0	-9.0737e-41
90	0x00000795	2.72e-42
91	0x80008440	-4.7442e-41
92	0x0000b164	6.3636e-41
93	0x0000c65e	7.1161e-41
94	0x000091c2	5.2288e-41
95	0x8000c636	-7.1105e-41
96	0x0000a1b5	5.801e-41
97	0x0000eb53	8.4418e-41
98	0x8000f80f	-8.8987e-41
99	0x8000d0b4	-7.4869e-41
100	0x00000eed	5.354e-42
101	0x800018df	-8.922e-42
102	0x0000f4ed	8.7863e-41
103	0x0000a5ff	5.9548e-41
104	0x0000abd8	6.1646e-41
105	0x00009396	5.2944e-41
106	0x00001dd3	1.0699e-41
107	0x0000b1c5	6.3772e-41
108	0x00003b24	2.1216e-41
109	0x80008dea	-5.0909e-41
110	0x80001c95	-1.0253e-41
111	0x80006550	-3.6344e-41
112	0x8000f4bf	-8.7798e-41
113	0x0000e07b	8.0528e-41
114	0x80003800	-2.0089e-41
115	0x000059a4	3.2157e-41
116	0x8000691d	-3.7708e-41
117	0x0000913f	5.2104e-41
118	0x0000cd63	7.3679e-41
119	0x8000a37c	-5.8647e-41
120	0x80006b56	-3.8505e-41
121	0x00003dc0	2.2152e-41
122	0x0000d9b2	7.8094e-41
123	0x00007e45	4.5297e-41
124	0x0000e5ca	8.2433e-41
125	0x80005db3	-3.3613e-41
126	0x80005c2f	-3.3069e-41
127	0x0000a337	5.855e-41
128	0x0000999d	5.5106e-41
129	0x8000f196	-8.6665e-41
130	0x000038ad	2.0331e-41
131	0x80007ba6	-4.4357e-41
132	0x8000da04	-7.8209e-41
133	0x000053b1	3.0023e-41
134	0x0000f344	8.7267e-41
135	0x0000672e	3.7014e-41
136	0x80001d54	-1.0521e-41
137	0x0000036b	1.226e-42
138	0x80001a09	-9.34e-42
139	0x8000c873	-7.1908e-41
140	0x8000e40f	-8.1812e-41
141	0x80005ca2	-3.323e-41
142	0x8000b3c8	-6.4493e-41
143	0x8000b55f	-6.5064e-41
144	0x0000f1ab	8.6694e-41
145	0x0000e61d	8.2549e-41
146	0x0000676f	3.7105e-41
147	0x0000f23b	8.6896e-41
148	0x8000f7f7	-8.8953e-41
149	0x0000ed0f	8.504e-41
150	0x00003b41	2.1256e-41
151	0x0000ea85	8.413e-41
152	0x8000908a	-5.1851e-41
153	0x80005511	-3.0516e-41
154	0x00004f34	2.8413e-41
155	0x0000ce97	7.411e-41
156	0x0000cd7b	7.3713e-41
157	0x0000a880	6.0446e-41
158	0x0000dbf9	7.8911e-41
159	0x0000f292	8.7018e-41
160	0x0000e3e4	8.1752e-41
161	0x000026b1	1.388e-41
162	0x0000eaac	8.4184e-41
163	0x0000a1f6	5.81e-41
164	0x00003518	1.9046e-41
165	0x0000f861	8.9102e-41
166	0x8000bb94	-6.729e-41
167	0x00009ee3	5.6998e-41
168	0x00007714	4.2717e-41
169	0x0000a9da	6.0931e-41
170	0x80002644	-1.3727e-41
171	0x8000df91	-8.02e-41
172	0x00006f4d	3.9927e-41
173	0x0000607f	3.4616e-41
174	0x0000c8aa	7.1985e-41
175	0x0000fa70	8.984e-41
176	0x80009c32	-5.6032e-41
177	0x00009f66	5.7181e-41
178	0x8000c070	-6.9034e-41
179	0x0000ebb4	8.4554e-41
180	0x8000ec85	-8.4847e-41
181	0x0000c27e	6.977e-41
182	0x0000e20f	8.1095e-41
183	0x80008a48	-4.9606e-41
184	0x00004f0a	2.8354e-41
185	0x80005044	-2.8794e-41
186	0x000076fb	4.2682e-41
187	0x80000066	-1.43e-43
188	0x0000c72c	7.145e-41
189	0x00004362	2.4172e-41
190	0x8000ba0f	-6.6745e-41
191	0x00001194	6.306e-42

EmbedUpdates.update.inp_f.bias f4 [64]
0	0x00008ceb	5.0552e-41
1	0x80005d44	-3.3457e-41
2	0x0000554c	3.0599e-41
3	0x8000e2a8	-8.1309e-41
4	0x800047ec	-2.5801e-41
5	0x000069f7	3.8013e-41
6	0x0000c742	7.148e-41
7	0x8000afbc	-6.3042e-41
8	0x8000a47d	-5.9007e-41
9	0x00009cdc	5.627e-41
10	0x0000c229	6.9652e-41
11	0x00006b6e	3.8539e-41
12	0x0000968b	5.4005e-41
13	0x00001c2a	1.0103e-41
14	0x80008592	-4.7916e-41
15	0x800057d8	-3.1512e-41
16	0x8000c86c	-7.1898e-41
17	0x000071a1	4.0762e-41
18	0x0000e814	8.3254e-41
19	0x80009a76	-5.541e-41
20	0x0000df68	8.0143e-41
21	0x8000e4ad	-8.2033e-41
22	0x0000163c	7.976e-42
23	0x800086b7	-4.8327e-41
24	0x8000dfa6	-8.023e-41
25	0x80003d57	-2.2005e-41
26	0x80008e43	-5.1034e-41
27	0x0000a91b	6.0664e-41
28	0x000073e9	4.1581e-41
29	0x8000468a	-2.5305e-41
30	0x8000e31d	-8.1473e-41
31	0x800081df	-4.6589e-41
32	0x00002450	1.3026e-41
33	0x00004129	2.3375e-41
34	0x8000be1e	-6.8201e-41
35	0x00000cc5	4.581e-42
36	0x0000f729	8.8664e-41
37	0x800033ff	-1.8653e-41
38	0x00006a68	3.8171e-41
39	0x000083d0	4.7285e-41
40	0x00005d10	3.3385e-41
41	0x8000e20a	-8.1088e-41
42	0x80007a8b	-4.396e-41
43	0x8000f0da	-8.6401e-41
44	0x8000c82f	-7.1812e-41
45	0x0000c85a	7.1873e-41
46	0x80006727	-3.7004e-41
47	0x8000fab9	-8.9942e-41
48	0x00004ef2	2.832e-41
49	0x8000937b	-5.2906e-41
50	0x00009ad0	5.5536e-41
51	0x8000b788	-6.5839e-41
52	0x0000da4a	7.8307e-41
53	0x800082d3	-4.6931e-41
54	0x000000c1	2.7e-43
55	0x0000e41b	8.1829e-41
56	0x00000ee8	5.347e-42
57	0x800006a9	-2.389e-42
58	0x8000b3fd	-6.4568e-41
59	0x0000c8ac	7.1988e-41
60	0x800082f2	-4.6974e-41
61	0x00009042	5.175e-41
62	0x0000daf9	7.8553e-41
63	0x0000b115	6.3525e-41

EmbedUpdates.update.inp_f_1.weight f4 [64, 64]
0	0x8000957a	-5.3622e-41
1	0x00008769	4.8576e-41
2	0x0000f4c1	8.7801e-41
3	0x80005a96	-3.2496e-41
4	0x8000cae0	-7.2778e-41
5	0x8000e162	-8.0852e-41
6	0x000048c9	2.611e-41
7	0x00007ee0	4.5514e-41
8	0x0000a88b	6.0462e-41
9	0x8000d366	-7.5835e-41
10	0x8000b30b	-6.4229e-41
11	0x0000d2d6	7.5634e-41
12	0x800072bd	-4.116e-41
13	0x00007e85	4.5387e-41
14	0x00003920	2.0493e-41
15	0x0000a87f	6.0445e-41
16	0x0000fd99	9.0974e-41
17	0x8000f2d3	-8.7109e-41
18	0x8000c96f	-7.2261e-41
19	0x0000e7cc	8.3153e-41
20	0x0000e37f	8.161e-41
21	0x8000f925	-8.9376e-41
22	0x8000353a	-1.9094e-41
23	0x0000bb0f	6.7104e-41
24	0x800070d5	-4.0477e-41
25	0x8000bb1f	-6.7126e-41
26	0x8000dca3	-7.915e-41
27	0x0000249b	1.3132e-41
28	0x00001952	9.083e-42
29	0x80005dd6	-3.3662e-41
30	0x0000ccd0	7.3473e-41
31	0x0000a9eb	6.0955e-41
32	0x8000d102	-7.4978e-41
33	0x8000e20b	-8.1089e-41
34	0x8000dbd7	-7.8864e-41
35	0x00003dd5	2.2181e-41
36	0x80004e25	-2.8033e-41
37	0x8000ef8a	-8.593e-41
38	0x80003c31	-2.1593e-41
39	0x8000aece	-6.2708e-41
40	0x8000a73f	-5.9997e-41
41	0x00001a8d	9.525e-42
42	0x8000abd7	-6.1645e-41
43	0x0000fb8f	9.0242e-41
44	0x8000f1ef	-8.679e-41
45	0x8000e52b	-8.221e-41
46	0x0000e2e7	8.1397e-41
47	0x80008534	-4.7784e-41
48	0x8000dff4	-8.0339e-41
49	0x800098f0	-5.4864e-41
50	0x0000f335	8.7246e-41
51	0x8000cbc6	-7.31e-41
52	0x0000e1b1	8.0963e-41
53	0x0000e978	8.3753e-41
54	0x8000cbf2	-7.3162e-41
55	0x0000b72a	6.5707e-41
56	0x0000a4f5	5.9175e-41
57	0x00000627	2.207e-42
58	0x8000a8f0	-6.0603e-41
59	0x8000ea95	-8.4152e-41
60	0x0000c552	7.0785e-41
61	0x0000e173	8.0876e-41
62	0x8000e2fa	-8.1424e-41
63	0x8000545b	-3.0261e-41
64	0x8000594d	-3.2035e-41
65	0x0000af0f	6.2799e-41
66	0x0000e95e	8.3716e-41
67	0x8000f9ac	-8.9565e-41
68	0x0000e5b4	8.2402e-41
69	0x0000e04d	8.0464e-41
70	0x8000e364	-8.1572e-41
71	0x000016f0	8.228e-42
72	0x80003588	-1.9203e-41
73	0x8000f26f	-8.6969e-41
74	0x00002480	1.3094e-41
75	0x00008b71	5.0022e-41
76	0x0000eeee	8.5712e-41
77	0x00008642	4.8163e-41
78	0x00005aec	3.2617e-41
79	0x0000f02b	8.6156e-41
80	0x80002fed	-1.7193e-41
81	0x80000b0f	-3.967e-42
82	0x8000df7b	-8.017e-41
83	0x000015a3	7.762e-42
84	0x00009af5	5.5588e-41
85	0x0000e63f	8.2597e-41
86	0x800051cb	-2.9342e-41
87	0x8000458b	-2.4947e-41
88	0x00009c8a	5.6156e-41
89	0x00000e50	5.134e-42
90	0x8000e059	-8.0481e-41
91	0x0000d03b	7.4699e-41
92	0x0000c03b	6.8959e-41
93	0x0000e0cc	8.0642e-41
94	0x8000be2a	-6.8218e-41
95	0x8000e543	-8.2244e-41
96	0x80006cd7	-3.9044e-41
97	0x8000e12b	-8.0775e-41
98	0x80004834	-2.5902e-41
99	0x00008269	4.6782e-41
100	0x80005424	-3.0184e-41
101	0x0000a95a	6.0752e-41
102	0x0000e566	8.2293e-41
103	0x0000e3e5	8.1753e-41
104	0x8000c932	-7.2175e-41
105	0x00008c3a	5.0304e-41
106	0x0000b1e8	6.3821e-41
107	0x0000df76	8.0163e-41
108	0x8000f4c9	-8.7812e-41
109	0x8000efcc	-8.6023e-41
110	0x8000ecc6	-8.4938e-41
111	0x8000fc21	-9.0447e-41
112	0x0000eb51	8.4416e-41
113	0x800039d7	-2.0749e-41
114	0x8000c7f6	-7.1732e-41
115	0x000040b2	2.3208e-41
116	0x0000f4c2	8.7803e-41
117	0x0000c954	7.2223e-41
118	0x0000ca06	7.2472e-41
119	0x0000b0e5	6.3458e-41
120	0x0000ec0c	8.4678e-41
121	0x0000c75b	7.1515e-41
122	0x8000f794	-8.8814e-41
123	0x000096b7	5.4066e-41
124	0x8000f10e	-8.6474e-41
125	0x8000e7b0	-8.3114e-41
126	0x00006799	3.7164e-41
127	0x8000e56f	-8.2305e-41
128	0x8000a813	-6.0294e-41
129	0x0000dbe2	7.8879e-41
130	0x0000de69	7.9786e-41
131	0x80001516	-7.564e-42
132	0x0000db8e	7.8761e-41
133	0x0000d1f9	7.5324e-41
134	0x0000f274	8.6976e-41
135	0x8000e159	-8.084e-41
136	0x8000efac	-8.5978e-41
137	0x0000f6eb	8.8577e-41
138	0x800006ca	-2.435e-42
139	0x8000f48a	-8.7724e-41
140	0x8000f487	-8.772e-41
141	0x000072f5	4.1239e-41
142	0x0000c74c	7.1494e-41
143	0x80003639	-1.9451e-41
144	0x0000cdff	7.3897e-41
145	0x0000f2c1	8.7084e-41
146	0x0000e960	8.3719e-41
147	0x00001a82	9.509e-42
148	0x0000c891	7.195e-41
149	0x00008fc3	5.1572e-41
150	0x8000f96e	-8.9479e-41
151	0x8000afdd	-6.3088e-41
152	0x8000ca6c	-7.2615e-41
153	0x80003c98	-2.1737e-41
154	0x80003905	-2.0455e-41
155	0x8000dbca	-7.8845e-41
156	0x0000efd7	8.6038e-41
157	0x0000c536	7.0746e-41
158	0x8000921a	-5.2411e-41
159	0x0000f2c6	8.709e-41
160	0x0000bf44	6.8613e-41
161	0x8000f13c	-8.6539e-41
162	0x0000c22e	6.9659e-41
163	0x8000e5d7	-8.2451e-41
164	0x00006569	3.6379e-41
165	0x800046f4	-2.5453e-41
166	0x80009f16	-5.7069e-41
167	0x0000c388	7.0143e-41
168	0x800000cb	-2.84e-43
169	0x8000fdd4	-9.1056e-41
170	0x8000fd36	-9.0835e-41
171	0x8000f23a	-8.6895e-41
172	0x80005256	-2.9537e-41
173	0x0000e601	8.251e-41
174	0x80006a5f	-3.8159e-41
175	0x0000e774	8.303e-41
176	0x8000e4de	-8.2102e-41
177	0x8000f1ef	-8.679e-41
178	0x8000fb9a	-9.0258e-41
179	0x80008f60	-5.1433e-41
180	0x0000ac30	6.1769e-41
181	0x0000a632	5.962e-41
182	0x00003307	1.8305e-41
183	0x00002451	1.3028e-41
184	0x8000fa80	-8.9862e-41
185	0x80001ab3	-9.578e-42
186	0x80003505	-1.902e-41
187	0x8000ba4c	-6.6831e-41
188	0x80001d9a	-1.0619e-41
189	0x00006f3f	3.9908e-41
190	0x0000f156	8.6575e-41
191	0x0000e12b	8.0775e-41
192	0x00007f67	4.5703e-41
193	0x0000a5fb	5.9543e-41
194	0x0000e31f	8.1476e-41
195	0x000005eb	2.123e-42
196	0x0000fa22	8.9731e-41
197	0x8000f8bd	-8.923e-41
198	0x0000de73	7.98e-41
199	0x8000f2eb	-8.7143e-41
200	0x0000e539	8.223e-41
201	0x80001f8a	-1.1314e-41
202	0x0000a70d	5.9927e-41
203	0x00009698	5.4023e-41
204	0x0000b64e	6.5399e-41
205	0x80000fca	-5.664e-42
206	0x00000351	1.19e-42
207	0x0000f114	8.6483e-41
208	0x0000e479	8.196e-41
209	0x000042a0	2.39e-41
210	0x8000e41f	-8.1834e-41
211	0x0000c50d	7.0689e-41
212	0x8000ef11	-8.5761e-41
213	0x80005e74	-3.3883e-41
214	0x8000e363	-8.1571e-41
215	0x00000209	7.3e-43
216	0x800033c6	-1.8573e-41
217	0x0000af6a	6.2927e-41
218	0x0000e437	8.1868e-41
219	0x0000e4bf	8.2059e-41
220	0x80002b90	-1.5627e-41
221	0x8000e8f4	-8.3568e-41
222	0x8000cd2a	-7.3599e-41
223	0x8000ecdb	-8.4968e-41
224	0x0000077d	2.686e-42
225	0x80001c2f	-1.011e-41
226	0x0000547c	3.0307e-41
227	0x8000bbfd	-6.7437e-41
228	0x8000dc7b	-7.9093e-41
229	0x0000dfa7	8.0231e-41
230	0x0000f23d	8.6899e-41
231	0x0000ec0a	8.4675e-41
232	0x0000e1cc	8.1e-41
233	0x80001457	-7.297e-42
234	0x00007616	4.2361e-41
235	0x0000041e	1.477e-42
236	0x800048b5	-2.6082e-41
237	0x0000bd7d	6.7976e-41
238	0x8000c9c2	-7.2377e-41
239	0x000005db	2.1e-42
240	0x0000ccd3	7.3477e-41
241	0x8000fc2d	-9.0464e-41
242	0x000084f1	4.769e-41
243	0x0000ce81	7.408e-41
244	0x000008e9	3.196e-42
245	0x0000f363	8.7311e-41
246	0x80007576	-4.2137e-41
247	0x8000f3cf	-8.7462e-41
248	0x8000f5e5	-8.821e-41
249	0x8000fd5a	-9.0885e-41
250	0x0000e64c	8.2615e-41
251	0x0000d574	7.6573e-41
252	0x8000d80f	-7.7507e-41
253	0x0000e147	8.0814e-41
254	0x0000ae5a	6.2546e-41
255	0x00007bb0	4.4371e-41

EmbedUpdates.update.inp_f_1.bias f4 [64]
0	0x8000bdd6	-6.81e-41
1	0x8000ae8b	-6.2614e-41
2	0x8000d25d	-7.5464e-41
3	0x8000f088	-8.6286e-41
4	0x0000dc51	7.9035e-41
5	0x0000aa3d	6.107e-41
6	0x80008ad2	-4.98e-41
7	0x0000f02a	8.6155e-41
8	0x0000f181	8.6635e-41
9	0x00003256	1.8057e-41
10	0x0000d31c	7.5732e-41
11	0x0000eed1	8.5671e-41
12	0x80005141	-2.9148e-41
13	0x8000d370	-7.585e-41
14	0x8000f0fd	-8.645e-41
15	0x0000e907	8.3594e-41
16	0x8000e031	-8.0425e-41
17	0x0000ebc4	8.4577e-41
18	0x80000ea4	-5.252e-42
19	0x8000f587	-8.8079e-41
20	0x0000f3ea	8.75e-41
21	0x0000cc45	7.3278e-41
22	0x0000fae2	9e-41
23	0x0000908c	5.1854e-41
24	0x0000330f	1.8316e-41
25	0x8000e882	-8.3408e-41
26	0x80001e1c	-1.0801e-41
27	0x0000e036	8.0432e-41
28	0x8000a073	-5.7558e-41
29	0x00004402	2.4397e-41
30	0x8000e069	-8.0503e-41
31	0x8000e133	-8.0786e-41
32	0x8000ab41	-6.1434e-41
33	0x8000d45d	-7.6182e-41
34	0x8000e03b	-8.0439e-41
35	0x80007702	-4.2692e-41
36	0x0000dcb1	7.9169e-41
37	0x0000441c	2.4433e-41
38	0x00000aff	3.945e-42
39	0x8000da08	-7.8215e-41
40	0x800031f8	-1.7925e-41
41	0x0000f0a5	8.6327e-41
42	0x80000db1	-4.912e-42
43	0x0000e311	8.1456e-41
44	0x8000bb2c	-6.7145e-41
45	0x0000e798	8.308e-41
46	0x0000ac8e	6.1901e-41
47	0x8000979c	-5.4387e-41
48	0x80004e11	-2.8005e-41
49	0x000098e1	5.4843e-41
50	0x00000c3b	4.387e-42
51	0x0000ef9c	8.5956e-41
52	0x00003e3d	2.2327e-41
53	0x0000cccd	7.3469e-41
54	0x0000f419	8.7566e-41
55	0x00002f87	1.705e-41
56	0x0000508c	2.8895e-41
57	0x8000e6c9	-8.279e-41
58	0x8000a901	-6.0627e-41
59	0x0000e127	8.077e-41
60	0x80002d33	-1.6214e-41
61	0x8000f0a0	-8.632e-41
62	0x0000f587	8.8079e-41
63	0x0000df72	8.0157e-41

EmbedUpdates.update.inp_b.weight f4 [64, 2]
0	0x00002026	1.1533e-41
1	0x8000b89c	-6.6225e-41
2	0x8000d6ab	-7.7008e-41
3	0x0000a6f3	5.989e-41
4	0x0000bebe	6.8425e-41
5	0x0000d2cb	7.5618e-41
6	0x8000299a	-1.4924e-41
7	0x8000f338	-8.725e-41
8	0x0000dd04	7.9285e-41
9	0x8000c52e	-7.0735e-41
10	0x800040ce	-2.3248e-41
11	0x80005266	-2.9559e-41
12	0x00005349	2.9877e-41
13	0x8000ac1a	-6.1738e-41
14	0x00004569	2.49e-41
15	0x80002a42	-1.5159e-41
16	0x8000375f	-1.9863e-41
17	0x0000c1f8	6.9583e-41
18	0x80002d52	-1.6258e-41
19	0x00002b2d	1.5489e-41
20	0x0000d989	7.8037e-41
21	0x0000fc01	9.0402e-41
22	0x8000d964	-7.7985e-41
23	0x0000cd71	7.3698e-41
24	0x8000f74b	-8.8712e-41
25	0x000023db	1.2863e-41
26	0x80003de4	-2.2202e-41
27	0x80007d96	-4.5052e-41
28	0x80007e42	-4.5293e-41
29	0x8000d498	-7.6264e-41
30	0x800072f7	-4.1242e-41
31	0x8000a28e	-5.8314e-41
32	0x0000c71b	7.1426e-41
33	0x800075e7	-4.2295e-41
34	0x80009b6d	-5.5756e-41
35	0x00008bd2	5.0158e-41
36	0x0000fc91	9.0604e-41
37	0x00005c76	3.3169e-41
38	0x0000eeea	8.5706e-41
39	0x00006014	3.4466e-41
40	0x8000e1db	-8.1022e-41
41	0x00007610	4.2353e-41
42	0x0000cab7	7.272e-41
43	0x000072e6	4.1218e-41
44	0x00003661	1.9507e-41
45	0x800022ef	-1.2532e-41
46	0x800041dd	-2.3627e-41
47	0x00003b4f	2.1276e-41
48	0x000040a7	2.3193e-41
49	0x800050ec	-2.9029e-41
50	0x0000e817	8.3258e-41
51	0x80004603	-2.5115e-41
52	0x800075b2	-4.2221e-41
53	0x00005908	3.1938e-41
54	0x80003d4e	-2.1992e-41
55	0x0000ba20	6.6769e-41
56	0x8000e4de	-8.2102e-41
57	0x80000e6d	-5.175e-42
58	0x000007c4	2.786e-42
59	0x8000037c	-1.25e-42
60	0x0000f1fb	8.6806e-41
61	0x8000ebaa	-8.454e-41
62	0x8000ce05	-7.3906e-41
63	0x8000f1ed	-8.6787e-41
64	0x0000c1f0	6.9572e-41
65	0x000092ed	5.2707e-41
66	0x0000ae07	6.2429e-41
67	0x0000438b	2.423e-41
68	0x80004406	-2.4402e-41
69	0x000075e3	4.229e-41
70	0x000073d9	4.1558e-41
71	0x8000209a	-1.1695e-41
72	0x0000f693	8.8454e-41
73	0x8000311a	-1.7614e-41
74	0x8000b0ed	-6.3469e-41
75	0x8000f060	-8.623e-41
76	0x8000e381	-8.1613e-41
77	0x0000b4c5	6.4848e-41
78	0x0000cc5c	7.331e-41
79	0x80006402	-3.5876e-41
80	0x80007810	-4.307e-41
81	0x0000b5f9	6.528e-41
82	0x00001661	8.028e-42
83	0x8000d40e	-7.6071e-41
84	0x00005bef	3.298e-41
85	0x00002059	1.1604e-41
86	0x800033ff	-1.8653e-41
87	0x80000b3d	-4.032e-42
88	0x0000be9b	6.8376e-41
89	0x000060e4	3.4758e-41
90	0x000040ea	2.3287e-41
91	0x8000c45d	-7.0442e-41
92	0x80007879	-4.3217e-41
93	0x0000fc19	9.0436e-41
94	0x800064b0	-3.612e-41
95	0x8000efe3	-8.6055e-41
96	0x8000f2e5	-8.7134e-41
97	0x8000f1da	-8.676e-41
98	0x80006550	-3.6344e-41
99	0x80001390	-7.018e-42
100	0x8000d117	-7.5007e-41
101	0x0000d648	7.687e-41
102	0x00009016	5.1688e-41
103	0x8000b43f	-6.466e-41
104	0x80004dbd	-2.7887e-41
105	0x8000cd27	-7.3595e-41
106	0x800096cb	-5.4094e-41
107	0x8000f12f	-8.652e-41
108	0x80009331	-5.2802e-41
109	0x8000fb48	-9.0143e-41
110	0x0000b342	6.4306e-41
111	0x8000c676	-7.1194e-41
112	0x8000c9cd	-7.2392e-41
113	0x0000e73d	8.2953e-41
114	0x0000df15	8.0027e-41
115	0x8000bcb7	-6.7698e-41
116	0x0000a530	5.9258e-41
117	0x00002e0d	1.652e-41
118	0x8000c564	-7.081e-41
119	0x8000b80e	-6.6026e-41
120	0x000064e8	3.6198e-41
121	0x0000f276	8.6979e-41
122	0x8000e34c	-8.1539e-41
123	0x0000c492	7.0516e-41
124	0x8000c57b	-7.0843e-41
125	0x0000c678	7.1197e-41
126	0x800036f5	-1.9715e-41
127	0x0000ac0a	6.1716e-41

EmbedUpdates.update.inp_b.bias f4 [64]
0	0x00007ef1	4.5538e-41
1	0x80007e7f	-4.5378e-41
2	0x0000731e	4.1296e-41
3	0x80001726	-8.304e-42
4	0x80003d86	-2.207e-41
5	0x80007f01	-4.556e-41
6	0x00000e2a	5.081e-42
7	0x80009f13	-5.7065e-41
8	0x0000b98d	6.6563e-41
9	0x80009058	-5.1781e-41
10	0x00001e23	1.0811e-41
11	0x000087ab	4.8668e-41
12	0x0000f1fe	8.681e-41
13	0x8000e160	-8.085e-41
14	0x0000f4c5	8.7807e-41
15	0x00004410	2.4416e-41
16	0x8000fcfb	-9.0752e-41
17	0x8000165c	-8.021e-42
18	0x0000844c	4.7459e-41
19	0x0000e418	8.1825e-41
20	0x00009f81	5.7219e-41
21	0x8000f1f1	-8.6792e-41
22	0x0000545e	3.0265e-41
23	0x0000d95f	7.7978e-41
24	0x80008c96	-5.0433e-41
25	0x0000c331	7.0021e-41
26	0x00008f09	5.1311e-41
27	0x00005134	2.913e-41
28	0x0000f5e8	8.8215e-41
29	0x00000997	3.44e-42
30	0x80008871	-4.8946e-41
31	0x0000ded8	7.9941e-41
32	0x00007f23	4.5608e-41
33	0x0000f058	8.6219e-41
34	0x0000ee4f	8.5489e-41
35	0x0000c7c5	7.1664e-41
36	0x00000227	7.72e-43
37	0x000073ba	4.1515e-41
38	0x80003f69	-2.2747e-41
39	0x0000f334	8.7245e-41
40	0x0000d067	7.476e-41
41	0x0000d9cc	7.8131e-41
42	0x000088ac	4.9029e-41
43	0x800094f3	-5.3433e-41
44	0x0000d928	7.7901e-41
45	0x0000e4aa	8.2029e-41
46	0x000078c5	4.3324e-41
47	0x00000f8c	5.577e-42
48	0x8000f84b	-8.9071e-41
49	0x0000f775	8.8771e-41
50	0x80005337	-2.9852e-41
51	0x0000dda7	7.9514e-41
52	0x8000180c	-8.626e-42
53	0x0000c657	7.1151e-41
54	0x8000ce94	-7.4106e-41
55	0x8000b0aa	-6.3375e-41
56	0x0000aeec	6.275e-41
57	0x8000f08e	-8.6295e-41
58	0x0000d6d4	7.7066e-41
59	0x80006e58	-3.9584e-41
60	0x00001844	8.705e-42
61	0x0000bdd9	6.8105e-41
62	0x0000873c	4.8513e-41
63	0x00002a49	1.5169e-41

EmbedUpdates.update.inp_b_1.weight f4 [64, 64]
0	0x8000f7ce	-8.8896e-41
1	0x0000434a	2.4139e-41
2	0x0000d123	7.5024e-41
3	0x8000e990	-8.3786e-41
4	0x0000af14	6.2806e-41
5	0x00005c57	3.3125e-41
6	0x8000f187	-8.6644e-41
7	0x8000338f	-1.8496e-41
8	0x800039ce	-2.0736e-41
9	0x0000c248	6.9695e-41
10	0x800039fa	-2.0798e-41
11	0x0000fb30	9.0109e-41
12	0x0000c68a	7.1222e-41
13	0x8000a12d	-5.7819e-41
14	0x000027fc	1.4344e-41
15	0x80009c9c	-5.6181e-41
16	0x000070c0	4.0447e-41
17	0x0000fc26	9.0454e-41
18	0x8000acb7	-6.1958e-41
19	0x8000bbaa	-6.7321e-41
20	0x8000f7f9	-8.8956e-41
21	0x8000f326	-8.7225e-41
22	0x800017ea	-8.579e-42
23	0x800088c5	-4.9064e-41
24	0x800031f7	-1.7924e-41
25	0x00007269	4.1043e-41
26	0x80000349	-1.178e-42
27	0x0000db60	7.8697e-41
28	0x8000b82e	-6.6071e-41
29	0x000052d7	2.9717e-41
30	0x800046e3	-2.543e-41
31	0x8000432d	-2.4098e-41
32	0x0000fab2	8.9933e-41
33	0x0000e906	8.3593e-41
34	0x80006796	-3.716e-41
35	0x800093af	-5.2979e-41
36	0x80001691	-8.095e-42
37	0x8000d1c1	-7.5246e-41
38	0x8000e40a	-8.1805e-41
39	0x8000abf6	-6.1688e-41
40	0x8000d890	-7.7688e-41
41	0x000069e9	3.7993e-41
42	0x000087c3	4.8702e-41
43	0x8000083f	-2.958e-42
44	0x00009810	5.455e-41
45	0x0000d093	7.4822e-41
46	0x8000ef96	-8.5947e-41
47	0x00006d21	3.9148e-41
48	0x000048b0	2.6075e-41
49	0x000050c1	2.8969e-41
50	0x8000ab50	-6.1455e-41
51	0x00005e28	3.3777e-41
52	0x8000bc2e	-6.7506e-41
53	0x0000915d	5.2147e-41
54	0x8000b21f	-6.3898e-41
55	0x8000cff7	-7.4604e-41
56	0x0000e0eb	8.0685e-41
57	0x800030f2	-1.7558e-41
58	0x0000ea01	8.3945e-41
59	0x80003adf	-2.1119e-41
60	0x80009b90	-5.5805e-41
61	0x000070e7	4.0502e-41
62	0x80006aa1	-3.8251e-41
63	0x00008aad	4.9747e-41
64	0x0000e94a	8.3688e-41
65	0x0000e2e0	8.1387e-41
66	0x00007f68	4.5705e-41
67	0x0000e91a	8.3621e-41
68	0x800097d2	-5.4463e-41
69	0x0000bc2b	6.7502e-41
70	0x00003b48	2.1266e-41
71	0x8000d596	-7.662e-41
72	0x8000f8c4	-8.924e-41
73	0x8000059f	-2.016e-42
74	0x8000cdb6	-7.3795e-41
75	0x800017fc	-8.604e-42
76	0x80007b64	-4.4264e-41
77	0x0000ef44	8.5832e-41
78	0x800076ec	-4.2661e-41
79	0x8000e7e8	-8.3192e-41
80	0x800080b9	-4.6177e-41
81	0x8000cef6	-7.4244e-41
82	0x8000550c	-3.0509e-41
83	0x0000e577	8.2316e-41
84	0x0000c25c	6.9723e-41
85	0x8000aabe	-6.1251e-41
86	0x8000f471	-8.7689e-41
87	0x80006223	-3.5205e-41
88	0x0000f38d	8.737e-41
89	0x00009527	5.3506e-41
90	0x0000740a	4.1627e-41
91	0x0000a831	6.0336e-41
92	0x0000fd2f	9.0825e-41
93	0x80009965	-5.5028e-41
94	0x80009b0a	-5.5618e-41
95	0x80001026	-5.793e-42
96	0x8000d5a9	-7.6647e-41
97	0x0000d3a1	7.5918e-41
98	0x8000044d	-1.543e-42
99	0x00006fcb	4.0104e-41
100	0x8000e6d1	-8.2801e-41
101	0x00001b3d	9.771e-42
102	0x8000018b	-5.54e-43
103	0x000034ad	1.8897e-41
104	0x00006628	3.6647e-41
105	0x8000fbc7	-9.032e-41
106	0x8000f459	-8.7655e-41
107	0x00007700	4.2689e-41
108	0x8000e016	-8.0387e-41
109	0x8000e596	-8.236e-41
110	0x00007782	4.2871e-41
111	0x0000c4a7	7.0546e-41
112	0x80005a06	-3.2294e-41
113	0x8000456e	-2.4907e-41
114	0x0000f6bf	8.8516e-41
115	0x8000a5fa	-5.9541e-41
116	0x8000cce0	-7.3495e-41
117	0x0000892a	4.9205e-41
118	0x8000f51a	-8.7926e-41
119	0x0000c094	6.9084e-41
120	0x0000af0c	6.2795e-41
121	0x000044a4	2.4624e-41
122	0x00002885	1.4536e-41
123	0x8000cf07	-7.4267e-41
124	0x0000bdb6	6.8055e-41
125	0x8000de56	-7.9759e-41
126	0x80009ff9	-5.7387e-41
127	0x8000ed41	-8.511e-41
128	0x00004284	2.3861e-41
129	0x80004f91	-2.8543e-41
130	0x000006d7	2.454e-42
131	0x8000c5da	-7.0976e-41
132	0x0000a18f	5.7956e-41
133	0x0000e540	8.224e-41
134	0x80008aab	-4.9745e-41
135	0x0000f5e4	8.8209e-41
136	0x80004f55	-2.8459e-41
137	0x80003a29	-2.0864e-41
138	0x00009657	5.3932e-41
139	0x8000fc77	-9.0567e-41
140	0x8000ca4e	-7.2573e-41
141	0x00007e4c	4.5307e-41
142	0x8000e24d	-8.1181e-41
143	0x8000eed8	-8.5681e-41
144	0x8000db2a	-7.8621e-41
145	0x000033c6	1.8573e-41
146	0x000048bc	2.6092e-41
147	0x8000c1a0	-6.946e-41
148	0x000009db	3.535e-42
149	0x0000f8db	8.9273e-41
150	0x800036fd	-1.9726e-41
151	0x0000d81e	7.7528e-41
152	0x0000499f	2.641e-41
153	0x0000bc81	6.7622e-41
154	0x0000079b	2.728e-42
155	0x0000e0a1	8.0582e-41
156	0x00004858	2.5952e-41
157	0x00009349	5.2836e-41
158	0x0000da11	7.8227e-41
159	0x0000ad94	6.2268e-41
160	0x0000e85b	8.3353e-41
161	0x80004012	-2.2984e-41
162	0x8000346c	-1.8805e-41
163	0x8000dddb	-7.9587e-41
164	0x800075fd	-4.2326e-41
165	0x8000e0bb	-8.0618e-41
166	0x0000519d	2.9277e-41
167	0x8000c28a	-6.9787e-41
168	0x0000a861	6.0403e-41
169	0x0000a987	6.0815e-41
170	0x80005fd2	-3.4374e-41
171	0x8000d0ac	-7.4857e-41
172	0x000045a9	2.499e-41
173	0x000047b5	2.5724e-41
174	0x800022da	-1.2502e-41
175	0x0000f2ce	8.7102e-41
176	0x0000a516	5.9222e-41
177	0x0000da38	7.8282e-41
178	0x0000cb09	7.2835e-41
179	0x8000f60f	-8.8269e-41
180	0x0000fcd1	9.0693e-41
181	0x800035db	-1.932e-41
182	0x0000841f	4.7396e-41
183	0x800064f1	-3.6211e-41
184	0x8000463e	-2.5198e-41
185	0x0000f2eb	8.7143e-41
186	0x000039a9	2.0685e-41
187	0x8000cac2	-7.2736e-41
188	0x80008dd7	-5.0883e-41
189	0x0000d35a	7.5819e-41
190	0x0000a948	6.0727e-41
191	0x8000d3c8	-7.5973e-41
192	0x0000cc2f	7.3247e-41
193	0x800001cf	-6.49e-43
194	0x00003385	1.8482e-41
195	0x8000deaf	-7.9884e-41
196	0x00008298	4.6848e-41
197	0x8000b68b	-6.5484e-41
198	0x0000f1cd	8.6742e-41
199	0x80000c4f	-4.415e-42
200	0x0000731d	4.1295e-41
201	0x00009d8c	5.6517e-41
202	0x80007701	-4.269e-41
203	0x00003e48	2.2342e-41
204	0x0000ab41	6.1434e-41
205	0x8000cfd3	-7.4553e-41
206	0x000077ad	4.2932e-41
207	0x8000d9b2	-7.8094e-41
208	0x8000a30b	-5.8489e-41
209	0x0000ddb9	7.9539e-41
210	0x00002c06	1.5793e-41
211	0x00006338	3.5593e-41
212	0x800096e4	-5.413e-41
213	0x80001963	-9.107e-42
214	0x80008ef4	-5.1282e-41
215	0x8000e2ac	-8.1315e-41
216	0x00002a24	1.5117e-41
217	0x0000aab2	6.1234e-41
218	0x8000f06f	-8.6251e-41
219	0x0000c6ef	7.1364e-41
220	0x0000f041	8.6187e-41
221	0x8000746e	-4.1767e-41
222	0x00009a79	5.5414e-41
223	0x8000e2cb	-8.1358e-41
224	0x0000f277	8.698e-41
225	0x00007a64	4.3905e-41
226	0x00009be3	5.5922e-41
227	0x00006cf7	3.9089e-41
228	0x0000bc65	6.7583e-41
229	0x00008d46	5.068e-41
230	0x0000f479	8.77e-41
231	0x80001521	-7.58e-42
232	0x8000efe8	-8.6062e-41
233	0x0000ef2c	8.5799e-41
234	0x0000f6f2	8.8587e-41
235	0x80001b13	-9.712e-42
236	0x0000496e	2.6342e-41
237	0x0000e720	8.2912e-41
238	0x80003ddc	-2.2191e-41
239	0x80000a19	-3.622e-42
240	0x000005dd	2.103e-42
241	0x0000e536	8.2225e-41
242	0x8000a67d	-5.9725e-41
243	0x8000ef3b	-8.582e-41
244	0x8000ee01	-8.538e-41
245	0x00004f02	2.8343e-41
246	0x8000f766	-8.875e-41
247	0x8000b821	-6.6053e-41
248	0x000071a7	4.0771e-41
249	0x8000fb76	-9.0207e-41
250	0x0000f865	8.9107e-41
251	0x0000b639	6.5369e-41
252	0x80009b80	-5.5783e-41
253	0x8000cadd	-7.2774e-41
254	0x80009250	-5.2487e-41
255	0x0000f201	8.6815e-41

EmbedUpdates.update.inp_b_1.bias f4 [64]
0	0x0000f98c	8.952e-41
1	0x0000e08d	8.0554e-41
2	0x00004309	2.4048e-41
3	0x8000d916	-7.7876e-41
4	0x8000e186	-8.0903e-41
5	0x80008faa	-5.1537e-41
6	0x8000bef2	-6.8498e-41
7	0x8000b7d2	-6.5942e-41
8	0x0000916f	5.2172e-41
9	0x0000d8f8	7.7834e-41
10	0x8000bf26	-6.8571e-41
11	0x00009050	5.177e-41
12	0x0000ec47	8.476e-41
13	0x8000f56c	-8.8041e-41
14	0x0000cb21	7.2869e-41
15	0x80004484	-2.4579e-41
16	0x0000ea90	8.4145e-41
17	0x8000be1a	-6.8196e-41
18	0x8000f3d2	-8.7466e-41
19	0x800070cb	-4.0462e-41
20	0x000047a2	2.5697e-41
21	0x00001a88	9.518e-42
22	0x80008be8	-5.0189e-41
23	0x00005d27	3.3417e-41
24	0x800012e4	-6.777e-42
25	0x0000a1de	5.8067e-41
26	0x0000f068	8.6242e-41
27	0x0000f8be	8.9232e-41
28	0x0000854e	4.7821e-41
29	0x0000ec3a	8.4742e-41
30	0x00009885	5.4714e-41
31	0x0000d18b	7.517e-41
32	0x8000367e	-1.9548e-41
33	0x00000034	7.3e-44
34	0x0000351a	1.9049e-41
35	0x8000fd7a	-9.093e-41
36	0x0000aedd	6.2729e-41
37	0x800021e2	-1.2155e-41
38	0x0000cb4e	7.2932e-41
39	0x0000ee63	8.5517e-41
40	0x80005d28	-3.3418e-41
41	0x80009274	-5.2537e-41
42	0x8000ca37	-7.2541e-41
43	0x80009e82	-5.6862e-41
44	0x80001055	-5.859e-42
45	0x8000bad1	-6.7017e-41
46	0x000081ea	4.6604e-41
47	0x80006c04	-3.8749e-41
48	0x8000e6f2	-8.2848e-41
49	0x8000eec2	-8.565e-41
50	0x8000a201	-5.8116e-41
51	0x8000d5a3	-7.6638e-41
52	0x80005a26	-3.2339e-41
53	0x0000ec4a	8.4765e-41
54	0x0000e7d1	8.316e-41
55	0x00008450	4.7465e-41
56	0x80001cc7	-1.0323e-41
57	0x80002c28	-1.584e-41
58	0x80009bf5	-5.5947e-41
59	0x8000909a	-5.1873e-41
60	0x0000f2f9	8.7162e-41
61	0x0000e823	8.3275e-41
62	0x8000e1d9	-8.1019e-41
63	0x0000895b	4.9274e-41

EmbedUpdates.update.inp_b2.weight f4 [64, 128]
0	0x000056bf	3.1119e-41
1	0x8000e270	-8.123e-41
2	0x0000e3b7	8.1689e-41
3	0x0000d88e	7.7685e-41
4	0x8000d03b	-7.4699e-41
5	0x8000ea28	-8.4e-41
6	0x00009e29	5.6737e-41
7	0x80008d6d	-5.0734e-41
8	0x800077b8	-4.2947e-41
9	0x8000cb4e	-7.2932e-41
10	0x000017be	8.517e-42
11	0x0000e4c4	8.2066e-41
12	0x8000d2d6	-7.5634e-41
13	0x0000e8f8	8.3573e-41
14	0x000072db	4.1202e-41
15	0x0000cf7b	7.443e-41
16	0x0000fddb	9.1066e-41
17	0x80003bd7	-2.1466e-41
18	0x00000aff	3.945e-42
19	0x0000e383	8.1616e-41
20	0x8000ea4d	-8.4051e-41
21	0x0000d3ed	7.6025e-41
22	0x80005688	-3.1042e-41
23	0x8000d1db	-7.5282e-41
24	0x800007ea	-2.839e-42
25	0x8000c3eb	-7.0282e-41
26	0x8000fa61	-8.9819e-41
27	0x0000e3fa	8.1783e-41
28	0x0000fd45	9.0856e-41
29	0x0000c53e	7.0757e-41
30	0x80002821	-1.4396e-41
31	0x00008906	4.9155e-41
32	0x800084b6	-4.7608e-41
33	0x80007b6e	-4.4278e-41
34	0x800067fd	-3.7304e-41
35	0x0000218b	1.2033e-41
36	0x0000c2dc	6.9902e-41
37	0x8000a8d0	-6.0559e-41
38	0x80008d0f	-5.0602e-41
39	0x000084e8	4.7678e-41
40	0x00008ec5	5.1216e-41
41	0x00001b01	9.687e-42
42	0x0000f464	8.7671e-41
43	0x800055db	-3.0799e-41
44	0x8000cdf8	-7.3888e-41
45	0x000092cb	5.266e-41
46	0x000081c1	4.6547e-41
47	0x0000c053	6.8993e-41
48	0x8000f4ce	-8.782e-41
49	0x80005faa	-3.4318e-41
50	0x8000bf03	-6.8522e-41
51	0x80000c91	-4.508e-42
52	0x8000a604	-5.9555e-41
53	0x80007086	-4.0366e-41
54	0x0000f244	8.6909e-41
55	0x00000718	2.545e-42
56	0x000056fb	3.1203e-41
57	0x8000395a	-2.0574e-41
58	0x8000ce3f	-7.3987e-41
59	0x0000cea1	7.4124e-41
60	0x0000f0b7	8.6352e-41
61	0x80003ad5	-2.1105e-41
62	0x0000bfb7	6.8774e-41
63	0x8000a924	-6.0676e-41
64	0x00006700	3.695e-41
65	0x00004f5f	2.8473e-41
66	0x8000f248	-8.6914e-41
67	0x0000998f	5.5086e-41
68	0x00005f1e	3.4122e-41
69	0x0000f095	8.6305e-41
70	0x8000c474	-7.0474e-41
71	0x00007e86	4.5388e-41
72	0x0000e36f	8.1588e-41
73	0x8000ec59	-8.4786e-41
74	0x80003e3d	-2.2327e-41
75	0x0000e66c	8.266e-41
76	0x00003587	1.9202e-41
77	0x000028b8	1.4607e-41
78	0x8000ef40	-8.5827e-41
79	0x800032f6	-1.8281e-41
80	0x8000cd43	-7.3634e-41
81	0x800014ce	-7.463e-42
82	0x0000b2c2	6.4126e-41
83	0x00003a87	2.0996e-41
84	0x80009232	-5.2445e-41
85	0x80007154	-4.0654e-41
86	0x0000eef0	8.5715e-41
87	0x0000d36a	7.5841e-41
88	0x8000bdd3	-6.8096e-41
89	0x0000c41b	7.035e-41
90	0x8000e154	-8.0833e-41
91	0x800035c7	-1.9292e-41
92	0x000002a0	9.42e-43
93	0x0000c9bb	7.2367e-41
94	0x0000850e	4.7731e-41
95	0x8000999d	-5.5106e-41
96	0x8000725a	-4.1022e-41
97	0x00002b95	1.5634e-41
98	0x8000103d	-5.825e-42
99	0x0000d606	7.6777e-41
100	0x8000b65e	-6.5421e-41
101	0x8000443e	-2.448e-41
102	0x00008fbe	5.1565e-41
103	0x0000c3b8	7.021e-41
104	0x00007b28	4.418e-41
105	0x000020a3	1.1708e-41
106	0x00001580	7.713e-42
107	0x0000838c	4.719e-41
108	0x0000c029	6.8934e-41
109	0x00007627	4.2385e-41
110	0x0000f1c5	8.673e-41
111	0x8000b9eb	-6.6695e-41
112	0x80008ad4	-4.9802e-41
113	0x0000d15e	7.5107e-41
114	0x0000e1a0	8.0939e-41
115	0x0000fbb6	9.0297e-41
116	0x0000aaad	6.1227e-41
117	0x800031d6	-1.7878e-41
118	0x00002f7f	1.7038e-41
119	0x0000963f	5.3898e-41
120	0x0000089f	3.093e-42
121	0x80009de5	-5.6642e-41
122	0x8000421f	-2.372e-41
123	0x00002210	1.222e-41
124	0x80005d89	-3.3554e-41
125	0x0000c211	6.9618e-41
126	0x8000b0d2	-6.3431e-41
127	0x0000e36a	8.1581e-41
128	0x8000143c	-7.259e-42
129	0x00005eac	3.3962e-41
130	0x000052cc	2.9702e-41
131	0x000077de	4.3e-41
132	0x0000d7f0	7.7464e-41
133	0x8000a2d5	-5.8413e-41
134	0x8000dba2	-7.879e-41
135	0x8000dbf1	-7.89e-41
136	0x0000d76a	7.7276e-41
137	0x8000e314	-8.146e-41
138	0x8000634f	-3.5625e-41
139	0x80004cb4	-2.7516e-41
140	0x8000bbab	-6.7323e-41
141	0x0000f15a	8.658e-41
142	0x800006fe	-2.508e-42
143	0x8000d326	-7.5746e-41
144	0x8000178e	-8.45e-42
145	0x800071d9	-4.0841e-41
146	0x80006b8a	-3.8578e-41
147	0x00009642	5.3902e-41
148	0x80004a36	-2.6622e-41
149	0x8000b816	-6.6038e-41
150	0x0000ee19	8.5413e-41
151	0x0000e63d	8.2594e-41
152	0x8000659d	-3.6452e-41
153	0x0000fc62	9.0538e-41
154	0x80006f90	-4.0021e-41
155	0x8000e430	-8.1858e-41
156	0x800021ac	-1.2079e-41
157	0x000020a1	1.1705e-41
158	0x8000be58	-6.8282e-41
159	0x8000604e	-3.4548e-41
160	0x0000dfc3	8.027e-41
161	0x8000dfa5	-8.0229e-41
162	0x0000151b	7.571e-42
163	0x0000eadc	8.4252e-41
164	0x8000363c	-1.9456e-41
165	0x8000fd5e	-9.0891e-41
166	0x80002b59	-1.555e-41
167	0x0000f925	8.9376e-41
168	0x8000e3ea	-8.176e-41
169	0x0000d427	7.6106e-41
170	0x8000758d	-4.2169e-41
171	0x00009077	5.1824e-41
172	0x0000d59d	7.663e-41
173	0x0000420a	2.369e-41
174	0x00005f44	3.4175e-41
175	0x0000d39a	7.5908e-41
176	0x8000aa2c	-6.1046e-41
177	0x8000d3b5	-7.5946e-41
178	0x00001cb7	1.0301e-41
179	0x80003460	-1.8789e-41
180	0x0000ddb3	7.953e-41
181	0x8000fc34	-9.0473e-41
182	0x80006be1	-3.87e-41
183	0x0000b8b4	6.6259e-41
184	0x8000e54e	-8.2259e-41
185	0x8000082e	-2.934e-42
186	0x0000eb57	8.4424e-41
187	0x0000a487	5.9021e-41
188	0x0000ee7d	8.5553e-41
189	0x000095d7	5.3752e-41
190	0x0000bfb7	6.8774e-41
191	0x8000585c	-3.1697e-41
192	0x8000fd20	-9.0804e-41
193	0x0000adc3	6.2334e-41
194	0x8000e9b1	-8.3833e-41
195	0x8000f32d	-8.7235e-41
196	0x8000ebd9	-8.4606e-41
197	0x8000bf70	-6.8675e-41
198	0x8000dd40	-7.937e-41
199	0x8000af0e	-6.2798e-41
200	0x000077a1	4.2915e-41
201	0x0000c2ed	6.9926e-41
202	0x8000f2d4	-8.711e-41
203	0x8000c29d	-6.9814e-41
204	0x0000e6b3	8.2759e-41
205	0x0000fc16	9.0431e-41
206	0x8000e8ca	-8.3509e-41
207	0x8000f9a4	-8.9554e-41
208	0x8000cdc1	-7.381e-41
209	0x000056b5	3.1105e-41
210	0x0000f3a5	8.7403e-41
211	0x0000aa01	6.0986e-41
212	0x8000f60e	-8.8268e-41
213	0x0000d9cb	7.813e-41
214	0x80006b9f	-3.8607e-41
215	0x8000ce37	-7.3976e-41
216	0x8000a106	-5.7764e-41
217	0x0000f395	8.7381e-41
218	0x0000f4a1	8.7756e-41
219	0x8000f595	-8.8098e-41
220	0x0000eb24	8.4353e-41
221	0x0000efe5	8.6058e-41
222	0x8000477c	-2.5644e-41
223	0x80004654	-2.5229e-41
224	0x00009c89	5.6154e-41
225	0x0000f29c	8.7032e-41
226	0x0000cb39	7.2903e-41
227	0x0000f20b	8.6829e-41
228	0x0000e341	8.1523e-41
229	0x8000ec9a	-8.4877e-41
230	0x8000e04d	-8.0464e-41
231	0x0000ab94	6.155e-41
232	0x8000d9a3	-7.8073e-41
233	0x8000d6b7	-7.7025e-41
234	0x00009390	5.2935e-41
235	0x8000f92f	-8.939e-41
236	0x8000c715	-7.1417e-41
237	0x80003398	-1.8508e-41
238	0x0000f261	8.6949e-41
239	0x0000df31	8.0066e-41
240	0x8000df38	-8.0076e-41
241	0x0000db21	7.8609e-41
242	0x0000f434	8.7604e-41
243	0x0000e5f6	8.2494e-41
244	0x8000dcf1	-7.9259e-41
245	0x0000e534	8.2223e-41
246	0x000056c4	3.1126e-41
247	0x8000ddcd	-7.9567e-41
248	0x80006194	-3.5004e-41
249	0x8000e79a	-8.3083e-41
250	0x8000df5b	-8.0125e-41
251	0x0000f544	8.7985e-41
252	0x0000fa91	8.9886e-41
253	0x000088e0	4.9101e-41
254	0x0000f292	8.7018e-41
255	0x8000ce63	-7.4038e-41

EmbedUpdates.update.inp_b2.bias f4 [64]
0	0x8000fc75	-9.0565e-41
1	0x8000005c	-1.29e-43
2	0x0000557a	3.0663e-41
3	0x8000c94e	-7.2215e-41
4	0x0000123f	6.545e-42
5	0x000088de	4.9099e-41
6	0x800058c0	-3.1838e-41
7	0x8000ee9b	-8.5596e-41
8	0x8000e850	-8.3338e-41
9	0x8000bbc5	-6.7359e-41
10	0x8000e4d7	-8.2092e-41
11	0x00005f6a	3.4228e-41
12	0x8000e085	-8.0542e-41
13	0x0000d721	7.7174e-41
14	0x0000cb8c	7.3019e-41
15	0x0000aaf6	6.1329e-41
16	0x0000ae21	6.2466e-41
17	0x80009034	-5.173e-41
18	0x8000744e	-4.1722e-41
19	0x8000fb4b	-9.0147e-41
20	0x8000f9fc	-8.9677e-41
21	0x800082ac	-4.6876e-41
22	0x8000b53d	-6.5016e-41
23	0x0000ef4d	8.5845e-41
24	0x8000a898	-6.048e-41
25	0x8000c864	-7.1887e-41
26	0x8000f7f7	-8.8953e-41
27	0x00002fc0	1.713e-41
28	0x8000e1b9	-8.0974e-41
29	0x80004338	-2.4114e-41
30	0x8000f2a9	-8.705e-41
31	0x0000b69d	6.551e-41
32	0x8000aa80	-6.1164e-41
33	0x0000e371	8.159e-41
34	0x8000af5a	-6.2904e-41
35	0x0000f0c4	8.637e-41
36	0x8000a351	-5.8587e-41
37	0x0000c998	7.2318e-41
38	0x80005f2e	-3.4144e-41
39	0x0000f413	8.7557e-41
40	0x0000c98b	7.23e-41
41	0x8000c50e	-7.069e-41
42	0x80007e59	-4.5325e-41
43	0x0000cd70	7.3697e-41
44	0x0000b553	6.5047e-41
45	0x0000bbc3	6.7356e-41
46	0x8000a7b0	-6.0155e-41
47	0x800030e8	-1.7544e-41
48	0x00003403	1.8658e-41
49	0x0000a48e	5.9031e-41
50	0x0000ca3f	7.2552e-41
51	0x0000bf73	6.8679e-41
52	0x0000a5e4	5.951e-41
53	0x00007098	4.0391e-41
54	0x0000ea83	8.4127e-41
55	0x8000adca	-6.2344e-41
56	0x0000f0c1	8.6366e-41
57	0x800096e4	-5.413e-41
58	0x8000bd21	-6.7847e-41
59	0x8000ad64	-6.2201e-41
60	0x00006d7b	3.9274e-41
61	0x8000a6fc	-5.9903e-41
62	0x0000e656	8.2629e-41
63	0x80007901	-4.3408e-41

EmbedUpdates.update.inp_b2_2.weight f4 [64, 64]
0	0x0000fdce	9.1048e-41
1	0x8000c0e1	-6.9192e-41
2	0x8000ede6	-8.5342e-41
3	0x8000e314	-8.146e-41
4	0x8000716f	-4.0692e-41
5	0x8000f9d2	-8.9619e-41
6	0x8000f054	-8.6213e-41
7	0x8000eec6	-8.5656e-41
8	0x0000a5f8	5.9538e-41
9	0x00002e45	1.6598e-41
10	0x8000e385	-8.1619e-41
11	0x80003f55	-2.2719e-41
12	0x8000ab55	-6.1462e-41
13	0x80001abd	-9.592e-42
14	0x800054e1	-3.0449e-41
15	0x8000eb88	-8.4493e-41
16	0x0000f9fa	8.9675e-41
17	0x8000c7b7	-7.1644e-41
18	0x0000ab7a	6.1514e-41
19	0x0000f606	8.8257e-41
20	0x80003703	-1.9734e-41
21	0x80003c94	-2.1731e-41
22	0x8000fb9e	-9.0263e-41
23	0x80005c93	-3.321e-41
24	0x800011c9	-6.38e-42
25	0x8000d77c	-7.7301e-41
26	0x8000bce2	-6.7758e-41
27	0x00009d72	5.6481e-41
28	0x8000c007	-6.8886e-41
29	0x8000a788	-6.0099e-41
30	0x0000a98d	6.0823e-41
31	0x000056ef	3.1186e-41
32	0x00004b7d	2.708e-41
33	0x0000ab63	6.1482e-41
34	0x000053c9	3.0056e-41
35	0x8000eff6	-8.6082e-41
36	0x0000af33	6.285e-41
37	0x0000f205	8.682e-41
38	0x8000f160	-8.6589e-41
39	0x0000ad4d	6.2169e-41
40	0x8000d340	-7.5782e-41
41	0x000020d3	1.1775e-41
42	0x80002bcf	-1.5716e-41
43	0x0000c19e	6.9457e-41
44	0x8000ce83	-7.4082e-41
45	0x00009553	5.3567e-41
46	0x8000b81c	-6.6046e-41
47	0x00001468	7.32e-42
48	0x800098f3	-5.4868e-41
49	0x8000f523	-8.7938e-41
50	0x8000c8b4	-7.1999e-41
51	0x80002d3e	-1.623e-41
52	0x0000cdcf	7.383e-41
53	0x0000c9b0	7.2352e-41
54	0x8000d562	-7.6547e-41
55	0x80002220	-1.2242e-41
56	0x8000aa68	-6.113e-41
57	0x8000f7ff	-8.8964e-41
58	0x80003d3c	-2.1967e-41
59	0x00004179	2.3487e-41
60	0x800085cf	-4.8001e-41
61	0x00009fbf	5.7306e-41
62	0x8000349e	-1.8875e-41
63	0x8000b562	-6.5068e-41
64	0x00005b15	3.2674e-41
65	0x00003cfe	2.188e-41
66	0x8000a340	-5.8563e-41
67	0x00001554	7.651e-42
68	0x00002d92	1.6348e-41
69	0x800077fc	-4.3042e-41
70	0x0000e19e	8.0936e-41
71	0x800007b9	-2.77e-42
72	0x0000290f	1.4729e-41
73	0x0000c558	7.0794e-41
74	0x0000451b	2.479e-41
75	0x80004567	-2.4897e-41
76	0x0000a3c6	5.8751e-41
77	0x800053af	-3.002e-41
78	0x00000384	1.261e-42
79	0x8000847d	-4.7528e-41
80	0x8000e44d	-8.1899e-41
81	0x8000c3a5	-7.0184e-41
82	0x00007dc4	4.5116e-41
83	0x0000ee6b	8.5528e-41
84	0x0000bf45	6.8615e-41
85	0x80001a40	-9.417e-42
86	0x0000d136	7.5051e-41
87	0x8000a00a	-5.7411e-41
88	0x8000eaaa	-8.4182e-41
89	0x8000e674	-8.2671e-41
90	0x0000f7e8	8.8932e-41
91	0x8000f336	-8.7248e-41
92	0x00007ff2	4.5898e-41
93	0x0000b6a6	6.5522e-41
94	0x0000b516	6.4961e-41
95	0x80008f8b	-5.1494e-41
96	0x80006c70	-3.89e-41
97	0x000039c8	2.0728e-41
98	0x0000f70b	8.8622e-41
99	0x000098b1	5.4775e-41
100	0x8000526e	-2.957e-41
101	0x0000e122	8.0762e-41
102	0x0000a13c	5.784e-41
103	0x000043de	2.4346e-41
104	0x8000f1f4	-8.6796e-41
105	0x0000759a	4.2187e-41
106	0x0000e4d3	8.2087e-41
107	0x8000d12e	-7.504e-41
108	0x00001bf1	1.0023e-41
109	0x0000ae99	6.2634e-41
110	0x8000def1	-7.9976e-41
111	0x8000cd86	-7.3728e-41
112	0x000021c2	1.211e-41
113	0x00005f4d	3.4187e-41
114	0x8000f17f	-8.6632e-41
115	0x8000e347	-8.1532e-41
116	0x80002f1b	-1.6898e-41
117	0x80001f39	-1.12e-41
118	0x0000bf2b	6.8578e-41
119	0x80002cd3	-1.608e-41
120	0x00007bbf	4.4392e-41
121	0x0000cffd	7.4612e-41
122	0x8000bb5c	-6.7212e-41
123	0x0000f339	8.7252e-41
124	0x80007e57	-4.5322e-41
125	0x0000bde8	6.8126e-41
126	0x00008662	4.8207e-41
127	0x8000bfd1	-6.8811e-41
128	0x8000de1f	-7.9682e-41
129	0x8000c857	-7.1868e-41
130	0x8000b9f5	-6.6709e-41
131	0x80008428	-4.7409e-41
132	0x0000dc33	7.8993e-41
133	0x8000d715	-7.7157e-41
134	0x8000334c	-1.8402e-41
135	0x80001c41	-1.0136e-41
136	0x0000e1c4	8.099e-41
137	0x8000f36d	-8.7325e-41
138	0x0000d4ed	7.6383e-41
139	0x0000fd93	9.0965e-41
140	0x8000f969	-8.9472e-41
141	0x0000ed3c	8.5104e-41
142	0x000009e2	3.545e-42
143	0x00003a8a	2.1e-41
144	0x0000e849	8.3328e-41
145	0x80000390	-1.278e-42
146	0x80004237	-2.3753e-41
147	0x8000ecbf	-8.4928e-41
148	0x80007476	-4.1778e-41
149	0x800080c7	-4.6197e-41
150	0x80001343	-6.91e-42
151	0x8000646c	-3.6025e-41
152	0x00000f16	5.412e-42
153	0x8000f974	-8.9487e-41
154	0x0000bc2c	6.7503e-41
155	0x0000d897	7.7698e-41
156	0x8000fc19	-9.0436e-41
157	0x000092e0	5.2689e-41
158	0x8000af40	-6.2868e-41
159	0x00003627	1.9426e-41
160	0x0000dd8c	7.9476e-41
161	0x8000f1a5	-8.6686e-41
162	0x00007900	4.3407e-41
163	0x8000aa01	-6.0986e-41
164	0x800072d0	-4.1187e-41
165	0x8000651d	-3.6273e-41
166	0x8000f4a2	-8.7758e-41
167	0x0000e168	8.086e-41
168	0x0000cb83	7.3006e-41
169	0x0000bd2c	6.7862e-41
170	0x0000ea00	8.3943e-41
171	0x800080e3	-4.6236e-41
172	0x0000d10e	7.4995e-41
173	0x0000cab5	7.2718e-41
174	0x0000d75d	7.7258e-41
175	0x0000699d	3.7887e-41
176	0x8000c165	-6.9377e-41
177	0x8000ddd4	-7.9577e-41
178	0x80000163	-4.97e-43
179	0x00002650	1.3744e-41
180	0x80002709	-1.4003e-41
181	0x80007725	-4.2741e-41
182	0x80002157	-1.196e-41
183	0x8000bfa2	-6.8745e-41
184	0x80006d1d	-3.9142e-41
185	0x0000fb79	9.0211e-41
186	0x00000b87	4.135e-42
187	0x8000194f	-9.079e-42
188	0x8000eed4	-8.5675e-41
189	0x00000e9e	5.244e-42
190	0x0000ee80	8.5558e-41
191	0x80008616	-4.8101e-41
192	0x000065af	3.6477e-41
193	0x0000bb33	6.7154e-41
194	0x8000dac4	-7.8478e-41
195	0x0000d036	7.4692e-41
196	0x0000d725	7.718e-41
197	0x8000ef7a	-8.5908e-41
198	0x80007991	-4.361e-41
199	0x80009a4a	-5.5348e-41
200	0x00006991	3.787e-41
201	0x8000c74d	-7.1496e-41
202	0x8000e6e8	-8.2834e-41
203	0x00005cfe	3.336e-41
204	0x0000caa6	7.2697e-41
205	0x8000f5b8	-8.8147e-41
206	0x80001343	-6.91e-42
207	0x8000f34a	-8.7276e-41
208	0x0000e34d	8.154e-41
209	0x0000f939	8.9404e-41
210	0x80009e80	-5.6859e-41
211	0x00000830	2.937e-42
212	0x8000f427	-8.7585e-41
213	0x00005714	3.1238e-41
214	0x8000fae4	-9.0003e-41
215	0x00006d28	3.9158e-41
216	0x00005363	2.9914e-41
217	0x8000f57a	-8.806e-41
218	0x8000f373	-8.7333e-41
219	0x00000847	2.97e-42
220	0x00004ffa	2.869e-41
221	0x8000aae8	-6.131e-41
222	0x8000e40b	-8.1806e-41
223	0x8000ab0e	-6.1363e-41
224	0x800042fb	-2.4028e-41
225	0x0000628f	3.5356e-41
226	0x00004a0b	2.6562e-41
227	0x800040bc	-2.3222e-41
228	0x80005a85	-3.2472e-41
229	0x80008a77	-4.9672e-41
230	0x80004e06	-2.799e-41
231	0x80002808	-1.436e-41
232	0x0000f4d3	8.7826e-41
233	0x00005dd8	3.3665e-41
234	0x0000fad9	8.9987e-41
235	0x000038f9	2.0438e-41
236	0x00001252	6.572e-42
237	0x00005ca4	3.3233e-41
238	0x0000419b	2.3535e-41
239	0x8000e13c	-8.0799e-41
240	0x80001c91	-1.0248e-41
241	0x000036bc	1.9635e-41
242	0x8000f03d	-8.6181e-41
243	0x8000c684	-7.1214e-41
244	0x00007904	4.3412e-41
245	0x000081c0	4.6546e-41
246	0x80009a73	-5.5406e-41
247	0x8000c8eb	-7.2076e-41
248	0x8000fc90	-9.0602e-41
249	0x8000c5e6	-7.0993e-41
250	0x0000e246	8.1172e-41
251	0x00003919	2.0483e-41
252	0x0000ea71	8.4102e-41
253	0x00006981	3.7848e-41
254	0x0000e199	8.0929e-41
255	0x0000c948	7.2206e-41

EmbedUpdates.update.inp_b2_2.bias f4 [64]
0	0x0000d540	7.65e-41
1	0x0000e2fd	8.1428e-41
2	0x80004c11	-2.7287e-41
3	0x0000cf4b	7.4363e-41
4	0x0000c806	7.1755e-41
5	0x8000cc55	-7.33e-41
6	0x8000caa0	-7.2688e-41
7	0x8000e191	-8.0918e-41
8	0x8000a903	-6.063e-41
9	0x80008ae8	-4.983e-41
10	0x8000e5c4	-8.2424e-41
11	0x00005d1c	3.3401e-41
12	0x8000f2ca	-8.7096e-41
13	0x8000199c	-9.187e-42
14	0x8000dc30	-7.8988e-41
15	0x8000cc8d	-7.3379e-41
16	0x0000cd81	7.3721e-41
17	0x8000766d	-4.2483e-41
18	0x8000e34d	-8.154e-41
19	0x800017b3	-8.502e-42
20	0x0000e342	8.1525e-41
21	0x800042ff	-2.4034e-41
22	0x0000e7d6	8.3167e-41
23	0x8000e1e7	-8.1038e-41
24	0x0000f28c	8.701e-41
25	0x0000c0bd	6.9141e-41
26	0x8000e5bf	-8.2417e-41
27	0x0000f3af	8.7417e-41
28	0x8000de44	-7.9734e-41
29	0x00008bbb	5.0126e-41
30	0x000053be	3.0041e-41
31	0x0000cd57	7.3662e-41
32	0x0000fc35	9.0475e-41
33	0x000010a5	5.971e-42
34	0x000070cb	4.0462e-41
35	0x0000aaa2	6.1212e-41
36	0x8000d40c	-7.6068e-41
37	0x800040b1	-2.3207e-41
38	0x8000861f	-4.8114e-41
39	0x8000ce35	-7.3973e-41
40	0x8000f57e	-8.8066e-41
41	0x8000f1ba	-8.6715e-41
42	0x0000f5e1	8.8205e-41
43	0x800078ca	-4.3331e-41
44	0x80001117	-6.13e-42
45	0x00003dea	2.221e-41
46	0x8000e771	-8.3026e-41
47	0x80007c4e	-4.4592e-41
48	0x0000b9b2	6.6615e-41
49	0x80006939	-3.7747e-41
50	0x80000cbd	-4.57e-42
51	0x0000e862	8.3363e-41
52	0x80003f4e	-2.271e-41
53	0x8000b783	-6.5832e-41
54	0x0000d891	7.769e-41
55	0x8000d04a	-7.472e-41
56	0x8000e45d	-8.1921e-41
57	0x0000f8e3	8.9284e-41
58	0x0000fb04	9.0047e-41
59	0x8000593c	-3.2011e-41
60	0x8000e2dc	-8.1382e-41
61	0x8000ae78	-6.2588e-41
62	0x8000f409	-8.7543e-41
63	0x0000f9b5	8.9578e-41
